computervision/emotiondetection/media2.tflite (tflite, 737568 bytes, 12 tensors)

arith.constant f4 [32]
000000 f2 27 40 3b 4c ee 5d bc 76 e5 1d 3c b2 ab 0f 3c
       0.0029320684 -0.013545584 0.009637227 0.008768963
000010 4b ae 94 ba 1c 27 06 bd a4 54 0e bd ec f9 19 bc
       -0.0011343447 -0.03275214 -0.03474869 -0.009397965
000020 f6 2c 64 bc 12 00 ff bb a1 a4 e7 ba 5a a6 53 bb
       -0.013926735 -0.007781991 -0.0017672965 -0.0032295198
000030 c4 6c 43 b8 84 ca d1 ba 03 e9 9f 3b 9a 39 41 bc
       -4.659292e-05 -0.0016005789 0.004880072 -0.011793518
000040 c1 d0 d2 bb 08 05 0b bd d5 29 1b 3c c2 aa 4c bb
       -0.006433577 -0.033940345 0.009470423 -0.003122971
000050 fc 0d 86 bc 1e 46 e1 bc 56 52 9d bc c6 4c 66 ba
       -0.01636409 -0.027499255 -0.0192043 -0.0008785244
000060 25 33 37 3b 80 1f 35 bb 7f 32 55 3b ef 6f 3e bc
       0.0027954069 -0.0027637184 0.0032531319 -0.011623367
000070 3c 6a 31 bc 44 cd 12 bc c4 c5 98 bc 6f b5 76 bc
       -0.010828551 -0.008960072 -0.01864899 -0.015057906

arith.constant1 f4 [32, 3, 3, 1]
000000 1b 3b e2 3d ca 04 3f bd 9b 41 b4 3d 05 86 bc 3d
       0.1104643 -0.046635427 0.08801576 0.0920525
000010 dd 11 f9 bd f9 71 ef bd c4 4a eb bd d1 0c f3 3d
       -0.1216161 -0.116916604 -0.1148887 0.11867679
000020 9d dd 7f bb 82 27 11 be 25 f5 e1 bd b0 ed 6a bd
       -0.0039042004 -0.14175227 -0.11033086 -0.057355583
000030 d0 22 97 3d 55 09 14 3e 2a 6f d7 bd 95 67 16 3e
       0.07379687 0.14456685 -0.1051925 0.14687951
000040 06 87 ee 3c 8a 01 16 3e bf 3e 8d 3d 09 6c 2d bd
       0.029117119 0.14649025 0.068967335 -0.04233936
000050 3d f7 bf bc bd 68 b3 3d 2a 76 ff bc 0a ef 99 bd
       -0.023433322 0.087602116 -0.031184275 -0.07516296
000060 a6 ba c7 3d a7 89 f3 bd e5 d6 c4 bd 0a 5d d3 bb
       0.09752397 -0.118914895 -0.096113004 -0.0064503
000070 d0 bf 9f 3d be c4 42 bd 5d 49 9f 3d 87 05 96 3d
       0.07800257 -0.04755091 0.07777665 0.07325273
000080 7a f6 03 be cc c9 a3 38 d5 97 22 3c a8 d4 b6 bc
       -0.12886992 7.810033e-05 0.009923895 -0.0223182
000090 4a 96 9d 3b b4 2d c1 bc 62 9e 8e bd 98 d5 50 ba
       0.0048091756 -0.023581363 -0.06963803 -0.0007966398
0000a0 9f 6f de bd 7d f8 14 bd 37 28 c5 3d e8 6f a8 3c
       -0.10861134 -0.03636979 0.09626811 0.020561174
0000b0 7d c5 ee 3b 16 79 bf bd a1 bc e8 3d e7 da c7 3d
       0.007286726 -0.09349267 0.11364103 0.09758549
0000c0 4a 9f 1a bc eb e7 b9 3d cd a8 ce bc a0 20 70 3d
       -0.009437392 0.09077438 -0.025226975 0.058624864
0000d0 7c f0 ef bd d1 84 80 bb 5a 87 bc bd eb ce 83 3d
       -0.11715791 -0.003922083 -0.09205504 0.06435951
0000e0 23 75 14 3c 5e 19 9e 3d 06 df c0 bd a4 4d 8e bd
       0.009061131 0.07719682 -0.09417538 -0.069484025
0000f0 29 2d 97 3d 9c 91 e3 3d ab 73 e4 3d 7d fd c5 3d
       0.073816605 0.11111757 0.111548744 0.0966749
000100 2d 2f 09 be 3e ab 05 be 99 0b 86 bd c1 f7 e7 3d
       -0.13396902 -0.13053605 -0.06545181 0.11326552
000110 fb d8 b6 3d 30 e0 01 3e c7 52 92 bd 79 17 9e 3d
       0.089281045 0.12683177 -0.07144695 0.07719321
000120 04 be a9 bd b4 40 c5 bd ad 5f ad 3d b3 b8 a3 bb
       -0.08288196 -0.09631482 0.08465514 -0.004996383
000130 b8 1d e9 3d 6e 63 dd bd fa 82 0d be f2 66 52 bd
       0.113826215 -0.1080998 -0.13819495 -0.051367708
000140 cc 37 03 3d b4 86 0c be b8 c8 e7 bd 27 3b b2 bd
       0.032035634 -0.1372326 -0.11317581 -0.08702689
000150 33 b4 a1 3b 97 41 69 3c 58 a6 e2 3d 70 15 b3 3d
       0.0049348115 0.014236829 0.11066884 0.08744323
000160 0d 2d f7 bd 82 b9 5b bd da 40 e1 bd 8d 19 c3 bd
       -0.1206914 -0.05364371 -0.109986976 -0.09526358
000170 fe df e1 bd 1e 08 b6 3d 74 1e 87 bd 2d 4d 30 3d
       -0.11029051 0.08888267 -0.06597605 0.04304235
000180 78 a4 00 3e e2 57 aa 3d f8 a2 b6 3c ae 31 ed bd
       0.1256274 0.083175436 0.022294506 -0.11581741
000190 08 48 07 3e ca 42 02 3e 54 57 04 be dd 22 10 be
       0.13211071 0.1272079 -0.12923938 -0.140758
0001a0 ad 17 25 3d 2d d7 8d bd 13 1f cd 3d 4f d5 38 3d
       0.040305782 -0.06925807 0.100156926 0.045125302
0001b0 a8 ba 07 bd b8 8b f6 3d bb 51 c4 bd 75 2d 84 3d
       -0.033136994 0.12038368 -0.09585901 0.06453983
0001c0 da 2d 4b 3c 6f 6b ed bd 6b 06 ba 3d e2 5c 40 3d
       0.012401069 -0.11592757 0.090832554 0.04696358
0001d0 ca 85 dd bc 22 1b 7a 3d 07 05 8b 3d 63 9e d9 bd
       -0.027041335 0.061061032 0.06788068 -0.10625913
0001e0 f2 54 3f bd 14 be ce bd 25 47 7d ba ef 6e 87 3d
       -0.04671187 -0.10094848 -0.00096617854 0.06612956
0001f0 f0 eb ee bd 4c 08 00 3e f8 4a 94 bd 02 f3 c4 bd
       -0.11666095 0.12503165 -0.07240862 -0.096166626
000200 35 99 d7 3d d2 06 b4 3b 76 b8 e6 3d 77 01 2f 3d
       0.10527269 0.005493977 0.11265652 0.042726006
000210 b2 73 f1 3d e0 59 97 bd 52 70 b2 bd 61 ba f8 3d
       0.11789645 -0.07390189 -0.0871283 0.12144924
000220 90 c6 22 be 59 0e 18 3d c0 68 dd bc 20 dd 10 be
       -0.15896058 0.037123058 -0.027027488 -0.14146852
000230 25 4e 89 bd d6 84 e5 bb 72 cb 7e bd 18 f3 eb bd
       -0.06704358 -0.0070043607 -0.06220574 -0.11520976
000240 cd bd f1 3c 52 c8 b1 bd 21 34 94 3c 2f 9a ba 3d
       0.02950945 -0.08680786 0.018091263 0.091114394
000250 91 b2 3a bd c0 8e df 3d 43 a4 e1 bd d2 69 8a 3d
       -0.04558045 0.10915899 -0.110176586 0.06758465
000260 12 22 ba 3d ee 9b ce 3d de 5b 26 3a 83 2c 2d 3d
       0.0908853 0.10088335 0.0006346087 0.042278778
000270 8b 6c 97 bd ce e7 3b 3d c6 d0 d8 3d c3 bc d0 3d
       -0.0739375 0.045875363 0.105866954 0.101922534
000280 62 e2 db bb c8 df 19 bd 0d 6f d1 3d f1 0f 8c bd
       -0.0067103365 -0.03756693 0.102262594 -0.06838978
000290 d3 ab 92 bd 75 cf 5a bd 4b a7 a5 bd 72 55 03 3d
       -0.07161679 -0.053420503 -0.08088549 0.03206391
0002a0 a0 65 03 be 01 25 16 be 71 48 0e bd 09 cf ab 3d
       -0.12831736 -0.14662553 -0.034737054 0.08389098
0002b0 3d c0 00 bd 1b 0d fb bd b9 7f b3 3d b2 99 05 be
       -0.031433333 -0.12258359 0.087645955 -0.13046911
0002c0 45 8e ec 3d 6c 60 b4 bd f4 89 4a 3d ac 7c 13 bd
       0.11550573 -0.088074535 0.04944797 -0.03600757
0002d0 91 d5 00 be fe f5 bf 3d a8 b4 2e bd 2e 96 1e 3d
       -0.12581469 0.09373091 -0.042652756 0.03871744
0002e0 ef d0 c2 3c d0 21 80 bd 4f 6e 04 be b3 aa 00 3c
       0.023781268 -0.06256449 -0.12932704 0.007853198
0002f0 48 39 e9 bc d9 b5 e6 bd a1 0e fb 3d 87 b1 a6 3d
       -0.028469697 -0.112651534 0.122586496 0.081393294
000300 ac 2b 95 bd 9e 31 a1 bc 16 a5 69 bb 4a c2 1e bd
       -0.072837204 -0.01967698 -0.0035651377 -0.038759507
000310 55 3b e8 3d 85 65 fa 3c c9 f0 14 3d 35 17 d8 3d
       0.11339442 0.030565986 0.036362443 0.105513014
000320 19 e4 a6 bd 98 7a fd 3d 7e e7 15 3d d6 51 14 be
       -0.08148975 0.123768985 0.03659772 -0.14484343
000330 72 ad cf 3d 9a c5 10 bc 14 62 90 3c 6b c8 d3 bd
       0.10140504 -0.008836174 0.017624892 -0.10340961
000340 b4 41 87 bd 27 87 b1 3d 50 05 3e bd e4 23 7b 3d
       -0.06604329 0.086683564 -0.046391785 0.061313525
000350 b9 a6 b3 3d c9 3c 3a bd bb 2b c0 3d 14 8e 71 3c
       0.08772034 -0.045468125 0.09383341 0.014743347
000360 7a 07 94 bd 9a b2 bf 3d d0 86 cf 3b ba 5b 85 bd
       -0.072279885 0.093602374 0.0063332096 -0.06511636
000370 1c fb a7 bc ac 53 84 3d 8a 83 99 3d a2 df db bd
       -0.02050548 0.06461272 0.07495792 -0.10736014
000380 89 7e ff 3c ba 0e 3d 3a 8c f4 94 bd 30 4e 2c bd
       0.031188266 0.0007211972 -0.07273206 -0.042066753
000390 59 15 05 bc 40 4e 82 3b ef be 53 bc dc d2 46 3d
       -0.008122765 0.0039766133 -0.01292394 0.048540935
0003a0 ef 9e 2b bd df 78 29 bd cf cc 77 bd 1b 87 08 be
       -0.041899618 -0.041375037 -0.060498055 -0.13332789
0003b0 3d 8a 21 3d 29 59 fa bd 4f 2e db 3c 39 40 06 3d
       0.039438475 -0.12224037 0.02675548 0.03277609
0003c0 26 74 f4 bd a1 cc c4 bc e5 02 07 be bd d9 20 3c
       -0.11936216 -0.024023356 -0.13184698 0.009817538
0003d0 71 04 46 3d cc fc 9e 3d 57 d9 c9 3d 0c 49 b7 3d
       0.04834408 0.07763061 0.098559074 0.089494795
0003e0 5c 2b db bd 0f 8e 33 bd 71 d2 81 3b db 58 ba bd
       -0.107016295 -0.04383665 0.003961854 -0.09098979
0003f0 f3 fc 9d bd bc 1c 17 bb 76 90 c8 bd c4 e4 30 3d
       -0.07714262 -0.0023057899 -0.09793179 0.043186918

arith.constant2 f4 [128]
000000 f0 a2 2c bc 33 b3 cd bb 00 f6 f2 bb b5 fa 93 bb
       -0.010536894 -0.0062774657 -0.0074145794 -0.0045159706
000010 26 fb 86 3c 02 ed a0 bb c4 e9 65 bb a4 ea a8 3b
       0.016477179 -0.004911066 -0.0035081962 0.0051549245
000020 25 c0 b3 bb 73 69 00 3c 48 8b 8b bb 87 1e f2 ba
       -0.005485552 0.007837641 -0.004258547 -0.0018472233
000030 a8 0e ca 3c ff e2 54 bb e2 ee 43 bc f8 f6 98 3c
       0.024665192 -0.0032483933 -0.01195881 0.018672451
000040 5a 1f 46 bb 51 e7 b9 bb db 8b bf 3c 07 ff c9 3a
       -0.003023109 -0.005673327 0.023382118 0.0015411087
000050 3e d0 57 bc 69 1b d7 bb 7e e7 31 bc 33 b4 bf 3c
       -0.013172207 -0.006564547 -0.010858415 0.023401355
000060 c3 67 f2 bb f8 9a c0 bb 17 87 75 3c 6e 16 f1 bb
       -0.0073976233 -0.0058778487 0.014985821 -0.00735741
000070 6d da cf bb 51 9e 8f 3c 08 1d 97 3c 0c 97 04 bc
       -0.006343177 0.017531546 0.01844646 -0.008092653
000080 bf 64 9b 3c d0 2b 26 bc cf 16 08 3d 76 f8 85 bb
       0.018968938 -0.010142282 0.033224877 -0.0040884567
000090 8c 0c 29 3c 43 c3 c5 3c b1 da 25 bb c3 d5 a0 3c
       0.010317933 0.02414096 -0.0025307352 0.01963318
0000a0 30 7e da bb 3b 2f 48 3b ba a4 20 3c bd 41 eb 3b
       -0.0066678748 0.003054573 0.009804899 0.0071794675
0000b0 7b e3 3c 3c 37 12 45 bc e6 9d 7c 3c 22 e3 86 3b
       0.011528845 -0.012028269 0.015418505 0.004116432
0000c0 b0 2e c2 3c cb 2f 03 bc 51 df fd bb 45 56 c6 bb
       0.023703903 -0.008007 -0.0077475687 -0.0060527646
0000d0 4c b6 43 3a 31 c3 82 3b c6 03 6a bb 6f 7f 0d bc
       0.0007465824 0.003990554 -0.0035707816 -0.00863634
0000e0 42 43 95 3c e6 cf 1a bc 1a 81 f4 3c 1b 74 1c bc
       0.018220548 -0.009448981 0.029846717 -0.009549166
0000f0 e5 30 69 3c 39 80 50 3a dd ed e4 3b c5 14 63 bb
       0.014232849 0.0007953677 0.0069863633 -0.003464983
000100 46 6f 0a 3c 4d 57 6c 3b 30 19 cf 3c 62 9e 28 3c
       0.008449381 0.0036062778 0.025280565 0.010291668
000110 1e 3f 4c 3c 7f ea ed 3c 45 fb b5 3a c9 bb d7 bb
       0.01246622 0.02904248 0.0013884088 -0.006583665
000120 c0 90 1f bc 0b bd 34 bc ac b6 d2 3c b6 44 49 bc
       -0.009739101 -0.0110313995 0.02572187 -0.012284448
000130 83 39 cf bb b9 31 8a 3c e8 4a b0 bb 30 9d 3d bb
       -0.0063239946 0.016869413 -0.0053800233 -0.0028932802
000140 7e e6 8e ba ce 65 d1 ba a0 83 91 3c a9 4a ab 3c
       -0.0010902432 -0.0015975775 0.017762959 0.020909624
000150 91 ea 29 bc 5e 02 1c bc e5 aa aa bb 00 32 13 3c
       -0.010370866 -0.009522049 -0.0052083605 0.008984089
000160 10 4e 67 3c 99 ae 7c bc 0b fb 81 3b fe 18 ec 3a
       0.014117733 -0.015422487 0.003966694 0.0018012819
000170 31 b5 5c 3c 90 9f 18 3b 91 54 be bb 3d 8e 9a 3c
       0.013470934 0.0023288466 -0.005808421 0.018866653
000180 30 c4 75 3c c8 bc 0b 3b 6a 1c 70 bb 6e 93 8a 3b
       0.015000388 0.002132224 -0.003663803 0.004229001
000190 bc c5 92 3c 13 4c 10 bc c6 8d a1 3b 6b 27 0d 3d
       0.017916553 -0.0088072 0.004930231 0.03446142
0001a0 ee 6b d0 bb 95 81 fa bb 4e 20 94 bb 78 10 a5 3c
       -0.0063605225 -0.007644842 -0.0045204526 0.020149454
0001b0 bc 30 52 3c 6d 89 fb ba 5d 16 32 bb 49 ce db 3c
       0.012829002 -0.0019190736 -0.0027173974 0.026831763
0001c0 94 f2 50 bb 78 03 f0 ba 4c fc ee 3b e3 b8 c2 bb
       -0.003188287 -0.0018311581 0.0072932597 -0.0059424504
0001d0 04 87 d4 bb 3d 93 a6 bb 05 a3 c6 3a ac ad 85 3c
       -0.0064858217 -0.00508347 0.0015154785 0.016318165
0001e0 8e 05 91 3b a6 f6 4f 3c b7 c4 69 3c ca be df bb
       0.004425711 0.012693083 0.014268092 -0.0068281638
0001f0 66 78 07 bc ef 95 32 bc 87 b1 ac 3c f5 a5 6f bb
       -0.008268451 -0.010900005 0.021080745 -0.0036567424

arith.constant3 f4 [2]
000000 0f 5c 0e bc 09 5c 0e 3c
       -0.008688941 0.008688935

arith.constant5 f4 [2, 128]
000000 fe 7f 4e 3e 55 2f a9 3d 73 54 57 3d 73 c5 84 3d
       0.20166013 0.08260981 0.05257077 0.06482973
000010 e3 16 1b be 69 52 93 3d d6 ee 54 3e 0d 5c d9 3d
       -0.1514545 0.07193453 0.20794234 0.106132604
000020 e7 3f 30 be 83 d5 19 be 55 47 c9 3d 1f d5 3c be
       -0.17211877 -0.15022855 0.09828059 -0.18440674
000030 c7 9b 9a 3d 42 65 9d 3d 83 1a 0d bd 71 33 ab 3c
       0.075492434 0.07685329 -0.03444911 0.020898553
000040 39 ae 34 3e 72 08 83 3d 47 c7 fa bb 9c 22 c5 3d
       0.17644586 0.06398095 -0.0076531502 0.09625742
000050 d5 d7 e0 bd 8e 14 3f be 47 57 35 3e ab 5e 1b bc
       -0.10978667 -0.18660185 0.17709075 -0.00948302
000060 fa 2f 11 be e3 20 22 3e 2a 17 32 be 90 69 40 3d
       -0.14178458 0.15832858 -0.17391649 0.046975672
000070 aa 79 e6 3d 0c 45 b7 3d e3 32 8b bc 0f 38 91 bd
       0.11253674 0.089487165 -0.016992038 -0.070907705
000080 18 82 0d be 96 f1 d1 3d 45 a4 7a bd cc 79 dd bd
       -0.13819158 0.10251157 -0.061191816 -0.108142465
000090 c5 ba 95 3c ea ad f5 bd a6 bd 05 3c e4 80 02 3e
       0.018277535 -0.11996062 0.0081628915 0.1274448
0000a0 a0 32 4a 3e d3 17 00 3e e8 c0 63 be 29 9b 87 3d
       0.19745874 0.12509088 -0.22241557 0.06621391
0000b0 69 e4 1d bd 08 51 64 3d 79 24 8c bd 1c a7 c6 3c
       -0.038547907 0.05574134 -0.06842894 0.024249606
0000c0 bd 8e 13 be e9 b1 be 3a a5 d6 d8 bd 54 b4 15 3d
       -0.14409919 0.0014548871 -0.10587815 0.036548927
0000d0 12 ed 7e 3c f0 d4 11 3e 51 5e cf 3d a2 11 40 be
       0.015559452 0.14241385 0.10125411 -0.18756726
0000e0 3b 71 03 be ea 98 09 3e c2 d4 73 be a9 4d c3 bd
       -0.12836163 0.13437238 -0.2381163 -0.09536297
0000f0 a0 47 ae 3d bc 37 ef 3d e8 ac 59 bd 71 6e 42 3e
       0.08509755 0.11680552 -0.053143412 0.18987443
000100 93 19 a1 bc 9d 0a 0b 3d 83 54 2e be aa 46 9b bd
       -0.019665515 0.03394567 -0.17024426 -0.075818375
000110 81 5b 90 bd 71 90 62 be 92 40 23 3e b6 fa ed 3d
       -0.07048703 -0.22125413 0.159426 0.11620085
000120 dc df 68 3d 4e b7 0e be 69 f8 c6 3c 76 53 15 3e
       0.056854114 -0.13937113 0.024288373 0.14582619
000130 42 d4 54 3e 6d c4 5a be 6e 59 4c 3e e7 dd ca 3d
       0.20784095 -0.21363993 0.1995599 0.09905606
000140 3d 42 52 3e 2c 82 98 3c 63 3e c4 3d f2 eb 25 3e
       0.2053308 0.018616758 0.09582212 0.16203287
000150 fb 05 4c be 0d 3b b7 bd 33 7a d5 bd 62 d9 a9 3d
       -0.19924156 -0.0894681 -0.10423698 0.082934156
000160 30 69 88 bd 3b bf 7c 3c 77 9e 4e 3e 8b 72 67 bd
       -0.06660688 0.015426452 0.20177637 -0.05650572
000170 ab 57 b8 bd 92 78 40 3e 6b ce fc 3d 66 39 7e bd
       -0.09001096 0.18795994 0.123440586 -0.06206646
000180 0b 59 3b be b0 7d 51 be a8 02 1f be 77 8e 4b 3e
       -0.18295686 -0.20458102 -0.15528357 0.19878565
000190 71 89 b9 3d 96 54 81 bd 44 7d 71 bd 32 0f 48 bd
       0.09059418 -0.063149616 -0.058957353 -0.048842616
0001a0 94 b8 ae bd a1 08 16 3e b1 02 be bd 6f 77 3f be
       -0.08531299 0.14651729 -0.09277857 -0.18697904
0001b0 65 00 57 3c 7b 6c e1 3d 84 c7 27 3e 4c 72 5a bd
       0.013122653 0.11007019 0.16384703 -0.05333166
0001c0 d2 6c 31 be 8c e2 73 bc 36 61 8f bc 9f 5d a4 3c
       -0.17326668 -0.014885556 -0.017502408 0.020064173
0001d0 65 66 6f bc a3 a3 48 be 1e c6 ce 3d a7 8a c1 bc
       -0.014611815 -0.19593672 0.100963816 -0.023625685
0001e0 78 62 37 be 3c 9f 56 bd 37 f4 3d be 34 3b c0 bd
       -0.17908657 -0.05239795 -0.18550192 -0.09386292
0001f0 92 7b bc 3d fe c8 2f 3e b5 1e 5e be 29 3a 48 be
       0.09203257 0.17166516 -0.21691401 -0.19553436
000200 44 de 51 3e 91 35 21 be 99 a6 d2 bd 5a ae d3 bc
       0.20494944 -0.1574309 -0.10285682 -0.025839973
000210 4d 63 2d bd 9f 48 10 be 48 16 53 3e 78 8d 15 be
       -0.04233103 -0.14090203 0.20613968 -0.14604747
000220 47 d7 2d be ef 26 53 3e 16 f7 61 bd 47 63 55 be
       -0.16976653 0.2062032 -0.05516728 -0.20838653
000230 3f 14 17 3e 52 d7 9a 3d 7d f6 3b bd 08 b1 1c 3e
       0.14753817 0.075606 -0.045889366 0.15301907
000240 a7 b1 65 3d 4f 18 28 3d 7d b3 21 3d 71 9f da 3d
       0.056077626 0.041038807 0.039477814 0.10674942
000250 4d 06 d9 bd 39 8b 07 be 8d de c1 bd 65 22 d9 3d
       -0.10596905 -0.13236703 -0.09466276 0.10602263
000260 9d 3e f6 bd 97 7e 22 3e 1d 89 63 bd a9 2f c9 bd
       -0.12023661 0.15868603 -0.055550683 -0.098235436
000270 56 00 b4 3d ed 18 1d 3e 8f 8d b2 3d 7e 17 56 3d
       0.087891266 0.1534154 0.087184064 0.052268498
000280 7d d3 02 bb 07 84 d7 3d 0d 21 35 3e b1 d6 15 be
       -0.0019962483 0.10523229 0.17688389 -0.1463268
000290 8b e3 56 3e f0 1a c1 3d cd f1 38 be 4e 36 2a 3e
       0.20985238 0.09428966 -0.1806099 0.16622278
0002a0 be 14 38 be d9 28 24 be c0 94 a0 3b db 80 90 bc
       -0.17976663 -0.16031207 0.004900545 -0.017639568
0002b0 c0 5a 58 3e 91 c6 e1 3d 96 02 ae 3c fb 1a 9f bd
       0.21128368 0.11024202 0.021241467 -0.07768818
0002c0 d1 b8 55 3e b7 01 0c be 29 87 e4 3d 2f 24 bd 3d
       0.20871283 -0.13672529 0.11158592 0.09235417
0002d0 9b 5d 08 be 32 f2 4d 3e 37 9b ab 3d 4c 7e 96 bd
       -0.13316958 0.20111921 0.08379214 -0.07348308
0002e0 c0 92 c0 3d 97 bd dc bd 43 29 0c 3d ed dd 3b be
       0.0940299 -0.10778349 0.034219038 -0.18346377
0002f0 55 63 53 3e 78 0c 03 be 9f e4 3f bd 5d 77 d1 bd
       0.20643361 -0.12797725 -0.04684889 -0.10227845
000300 19 29 ca 3c 36 d3 9e bd 0e 2e cb 3d a8 0a 42 3d
       0.0246778 -0.07755129 0.099208936 0.047373444
000310 8e 3d fb 3d ca a2 8d 3d fd 78 02 3e bf 24 a9 bd
       0.122676 0.06915815 0.12741466 -0.08258962
000320 ae d5 80 bd 00 5d 13 3d 20 de f2 3d 52 19 27 3e
       -0.06290756 0.035977364 0.11858773 0.16318253
000330 f1 e9 4e be 6c 45 2d bd d1 97 33 be 89 17 97 3d
       -0.20206429 -0.042302534 -0.17538382 0.07377536
000340 6b dd fd 3d 16 ea 49 be fa e2 10 3e be 1b 47 3e
       0.12395748 -0.19718203 0.14149085 0.19444177
000350 52 37 a9 3d fc fd 02 be dd 2c 53 3e 87 09 25 3e
       0.08262505 -0.127922 0.20622583 0.16116916
000360 8c cc 3f 3e 55 93 07 3c d0 29 34 be 9a 70 c3 bd
       0.18730372 0.008274873 -0.17594075 -0.095429614
000370 77 41 80 3b 16 b5 38 be 9a 8f 08 3e 0e 04 a7 3d
       0.003914054 -0.18037829 0.1333603 0.0815507
000380 ff 80 61 3d d8 e9 1a be 5d 62 0e be 67 d1 ba bd
       0.05505466 -0.15128267 -0.1390471 -0.091219716
000390 53 41 09 3e 3f ef 7f bd 66 d0 17 be f3 c3 b4 3d
       0.13403825 -0.062484022 -0.14825591 0.08826437
0003a0 52 1d 89 bd 83 39 7a bd 3f 10 0b be 55 68 04 3a
       -0.066950455 -0.061090004 -0.13580416 0.0005050947
0003b0 fd aa 0f 3e 91 07 2a bd a5 7b 66 3c 8a df d5 bb
       0.1403007 -0.041511122 0.014067565 -0.006526892
0003c0 2d e9 de bc d8 fb f1 bd 10 d3 4f 3c e7 5e 44 be
       -0.027210796 -0.118156135 0.012684599 -0.19176827
0003d0 d7 5d 3b 3e 82 8a 06 3e 64 da 81 3c 19 1a 3c 3e
       0.18297516 0.13138774 0.015851207 0.1836933
0003e0 8d ed 4f bd 44 96 f4 bd a1 7d 56 3d a6 25 9a bb
       -0.050763655 -0.119427234 0.052365903 -0.004704195
0003f0 43 97 20 be c3 7a 8b 3d fa 04 96 3d a1 16 1f 3b
       -0.15682702 0.06810524 0.07325168 0.0024274962

arith.constant6 f4 [64]
000000 d3 ce 47 bb 3c 7c 0c bc a2 c5 60 bc e5 31 3c bc
       -0.0030488267 -0.008574542 -0.013718994 -0.011486505
000010 05 1c 05 bc 61 ce 98 bc b3 d9 bf bb 2b 7f 24 bc
       -0.008124356 -0.018653097 -0.005854809 -0.010040085
000020 78 7f f8 bb 67 cb e1 bb 41 66 0f bc 66 54 33 bc
       -0.007583555 -0.0068907025 -0.008752407 -0.010945415
000030 0d b9 88 bc fd 3c 8d ba 5f 8f 0b bc ee b0 7b bc
       -0.016689802 -0.0010775622 -0.008518069 -0.015362008
000040 0c 09 10 bc 5c a7 3e bc 6d 99 06 bc c3 a2 34 3c
       -0.008791219 -0.011636581 -0.0082152905 0.011025134
000050 66 17 db bb b9 83 d0 bb 98 3d ce b9 62 56 25 bc
       -0.006686139 -0.006363359 -0.00039337273 -0.010091396
000060 5f cf dd ba 15 18 eb bb f6 fd fa bb d6 87 db bb
       -0.0016922763 -0.0071745017 -0.007659669 -0.0066995425
000070 45 09 e4 bb 4a 81 8f bb 52 f7 0c bc 62 f2 3d bc
       -0.006959113 -0.004379426 -0.008603888 -0.011593433
000080 b0 f2 55 bb eb 3d 74 bb 46 0d 8f bb e8 e0 91 bb
       -0.0032645874 -0.0037268351 -0.004365596 -0.0044518597
000090 67 f3 3a bb 2b 82 98 bc a9 af 70 bb a2 96 a7 bb
       -0.0028526427 -0.018616756 -0.0036725795 -0.0051143924
0000a0 ad 30 be bb 84 f7 9d 3a df 41 03 bc 30 c3 88 bc
       -0.0058041424 0.0012051915 -0.00801131 -0.016694635
0000b0 30 f6 00 3d dd 85 bf bb 54 27 ce bb fb 02 c0 bb
       0.031484783 -0.005844815 -0.0062913094 -0.0058597303
0000c0 de 5a 57 bc eb 83 e9 bb c4 17 10 bc d3 fd bd bb
       -0.013144223 -0.0071263216 -0.008794729 -0.0057980805
0000d0 d5 85 c0 bb 43 82 8e bb d8 bc b8 bb 32 9b 6c bc
       -0.005875329 -0.0043490245 -0.0056377463 -0.014441298
0000e0 a0 e3 2c bc 97 a2 e1 bb bc 70 0f bc b5 07 b9 ba
       -0.010552317 -0.0068858373 -0.008754905 -0.0014116677
0000f0 80 16 37 bc 17 f8 19 bc 11 7c 34 3c e0 45 fd b9
       -0.011174798 -0.009397528 0.011015908 -0.0004830798

arith.constant7 f4 [64]
000000 c4 2c 82 3c 61 02 8f bb 9d 44 84 3a 7d 43 3c bc
       0.015890487 -0.0043642973 0.0010091249 -0.0114907
000010 43 88 6b bc 27 53 df bb b3 76 37 bc f7 de 9c bc
       -0.014375749 -0.0068153325 -0.011197734 -0.019149287
000020 a7 e7 96 3c 66 82 4f bb c6 69 10 bc d2 0d 81 bb
       0.018421007 -0.0031663417 -0.008814281 -0.003938415
000030 7e 03 89 bc 29 ff 47 bc 12 f2 87 bc fd 3e a5 3c
       -0.016725298 -0.012206831 -0.01659492 0.020171637
000040 c4 ad b1 bb bf da d8 bb ed 5c 8c bc 40 23 fd bb
       -0.005422326 -0.0066178734 -0.017134154 -0.0077251494
000050 a3 dd a3 bc c2 8e 78 bc ba 92 8b bc 9a be 9a bb
       -0.020003146 -0.015170755 -0.017037738 -0.0047224285
000060 fe 3f b9 bb f8 85 00 bc 43 09 1c bc c4 02 51 bc
       -0.0056533804 -0.007844441 -0.009523693 -0.012757007
000070 20 bd 03 bc 01 77 ff bb 0c 25 04 bc af 31 26 bc
       -0.008040696 -0.007796169 -0.008065473 -0.010143681
000080 ae 4d 8e bc 78 70 99 3c ee 62 8e bb 5a 0b 45 3b
       -0.017371025 0.018730387 -0.0043452894 0.003006658
000090 a7 45 26 bc d3 d8 1c bb e2 70 82 bc 4b 75 e0 bb
       -0.010148442 -0.0023932948 -0.015922967 -0.00684992
0000a0 09 b1 9b bc 40 4f 82 bc c7 b5 4d bc a0 ea 21 bc
       -0.019005315 -0.01590693 -0.012555546 -0.009882599
0000b0 d4 b7 0a bc 68 c4 b2 bb 89 da d0 bb e3 63 3c bc
       -0.00846668 -0.0054555424 -0.0063737077 -0.011498424
0000c0 86 9f fc ba d2 3e f0 bb 1a 6a 85 39 3b 2d 54 bb
       -0.0019273616 -0.0073317075 0.0002544679 -0.0032375592
0000d0 fb 95 2f bc 9d b2 3e bc a9 82 4d bc c5 6c 32 bc
       -0.0107169105 -0.011639264 -0.012543359 -0.0108901905
0000e0 6c 55 8c bc 9c 40 ad bb e3 75 e1 bb 18 7d a9 bb
       -0.017130576 -0.005287243 -0.0068805083 -0.005172383
0000f0 5c 52 8c bb 30 23 44 bc f3 cf 7e bc fa 7b 98 bc
       -0.004282279 -0.01197128 -0.015552509 -0.018613804

arith.constant8 f4 [32]
000000 ef cb 6c bc 93 e0 a8 bc 22 04 c6 bb 16 11 5c bc
       -0.014452918 -0.020614898 -0.006042973 -0.013431808
000010 f3 d6 0f bc f5 76 62 bc 84 fd 8f bb d3 36 aa bb
       -0.008779275 -0.013822307 -0.004394235 -0.005194524
000020 12 4c 6e bc 47 42 2a bc d7 60 e5 bb 4b af 1a bc
       -0.014544504 -0.010391778 -0.0070000696 -0.009441207
000030 70 02 d4 bb 7a 11 23 bc 28 1b de 3b 0f 1a 97 bc
       -0.006470017 -0.009952897 0.0067781396 -0.018445043
000040 94 71 7c 3a 0b b3 05 bc e1 7d da bb 6b f8 7a 3b
       0.00096299616 -0.008160363 -0.006667838 0.0038295041
000050 80 c9 27 bc c3 2c 9a bb 91 9b ee bb 7c 73 cf bb
       -0.010240912 -0.004705043 -0.0072817286 -0.0063309055
000060 8b 00 43 bc 0f 80 15 3d 45 33 99 bc 01 61 4d 3b
       -0.011901985 0.03649908 -0.018701205 0.0031338336
000070 a3 c4 48 bc aa 61 3b bc d8 ac 75 bc 60 a7 ad bb
       -0.012253913 -0.011436859 -0.014994822 -0.0052994937

tfl.pseudo_qconst i1 [64, 3, 3, 64]
000000 d5 3f e8 30 45 67 f8 61 5a 27 15 d2 29 ad 0a 03
       -43 63 -24 48 69 103 -8 97 90 39 21 -46 41 -83 10 3
000010 0b 8a c8 97 a9 ba be 0b b8 f4 0a 2d 17 26 0d 8e
       11 -118 -56 -105 -87 -70 -66 11 -72 -12 10 45 23 38 13 -114
000020 fd 0d 07 0e 3a e9 22 04 f7 19 a1 1a 07 f1 64 32
       -3 13 7 14 58 -23 34 4 -9 25 -95 26 7 -15 100 50
000030 1e fa f9 c4 e5 55 29 eb b0 a0 18 f4 02 2f e3 a2
       30 -6 -7 -60 -27 85 41 -21 -80 -96 24 -12 2 47 -29 -94
000040 1c ed 3c 0a 35 c7 36 38 29 2a d8 d3 f5 bf ba 19
       28 -19 60 10 53 -57 54 56 41 42 -40 -45 -11 -65 -70 25
000050 51 37 f5 bb f9 00 a6 b3 13 c2 a5 4a f5 51 bd 37
       81 55 -11 -69 -7 0 -90 -77 19 -62 -91 74 -11 81 -67 55
000060 5e f0 d4 f5 ad f1 1f 73 be d6 9d ea a5 ed d9 b4
       94 -16 -44 -11 -83 -15 31 115 -66 -42 -99 -22 -91 -19 -39 -76
000070 23 9a 4a b4 ba 0e 1c 21 42 47 bc c1 9f 9b 18 2f
       35 -102 74 -76 -70 14 28 33 66 71 -68 -63 -97 -101 24 47
000080 d8 b3 09 55 66 fc e1 28 d3 11 06 0a f6 38 ed ba
       -40 -77 9 85 102 -4 -31 40 -45 17 6 10 -10 56 -19 -70
000090 d0 5d b1 58 dd 1b 47 94 fa 66 57 a0 ed 1e 36 12
       -48 93 -79 88 -35 27 71 -108 -6 102 87 -96 -19 30 54 18
0000a0 9b 50 9f dd 09 2b 34 28 c5 15 f5 97 3f 4d 3c 39
       -101 80 -97 -35 9 43 52 40 -59 21 -11 -105 63 77 60 57
0000b0 46 43 9d 30 c0 a5 6b 15 37 13 53 1c a2 cc 02 f3
       70 67 -99 48 -64 -91 107 21 55 19 83 28 -94 -52 2 -13
0000c0 37 47 cf ef 55 ea 47 e8 45 09 ef 10 b3 be 4a 4d
       55 71 -49 -17 85 -22 71 -24 69 9 -17 16 -77 -66 74 77
0000d0 4a d2 ce 03 16 ee 04 dc c6 4e 30 a7 4d f8 1c d7
       74 -46 -50 3 22 -18 4 -36 -58 78 48 -89 77 -8 28 -41
0000e0 f4 10 e4 1a e9 a4 83 54 0e 21 5b 0b d4 51 4d 99
       -12 16 -28 26 -23 -92 -125 84 14 33 91 11 -44 81 77 -103
0000f0 0e f6 db f1 fa d7 c8 c0 e1 0d a1 40 3e 38 34 b3
       14 -10 -37 -15 -6 -41 -56 -64 -31 13 -95 64 62 56 52 -77

tfl.pseudo_qconst1 i1 [64, 3, 3, 32]
000000 ff bd 1b b5 ce 34 21 e7 c0 24 53 3e 24 59 21 f4
       -1 -67 27 -75 -50 52 33 -25 -64 36 83 62 36 89 33 -12
000010 39 43 dd f0 d7 09 e6 06 3a 81 1e 37 f6 e1 06 d0
       57 67 -35 -16 -41 9 -26 6 58 -127 30 55 -10 -31 6 -48
000020 12 eb dd 08 11 e5 ee c9 e5 d0 12 4e 40 09 f6 e9
       18 -21 -35 8 17 -27 -18 -55 -27 -48 18 78 64 9 -10 -23
000030 e9 29 2b f9 3f 01 d5 f8 24 ac 4d 3c 23 10 59 e4
       -23 41 43 -7 63 1 -43 -8 36 -84 77 60 35 16 89 -28
000040 27 1d cb 16 45 fe 44 d1 cb ef 44 f1 2f e9 bd cb
       39 29 -53 22 69 -2 68 -47 -53 -17 68 -15 47 -23 -67 -53
000050 b5 21 0e b3 30 d9 c1 10 2d ad d3 34 f3 44 51 2c
       -75 33 14 -77 48 -39 -63 16 45 -83 -45 52 -13 68 81 44
000060 1b 19 0e b7 41 d6 fe 3e 2f 01 cc 1b 1e 0b 0f 35
       27 25 14 -73 65 -42 -2 62 47 1 -52 27 30 11 15 53
000070 0a c1 d3 32 fa ab f3 c7 30 b8 1a 1c fc 15 42 dd
       10 -63 -45 50 -6 -85 -13 -57 48 -72 26 28 -4 21 66 -35
000080 2c f1 2a 1e 34 0a 02 f7 bb f3 2c d3 11 f7 0d 21
       44 -15 42 30 52 10 2 -9 -69 -13 44 -45 17 -9 13 33
000090 14 d1 e1 f2 03 21 d3 c7 c9 f8 c2 d3 d8 e6 fb 18
       20 -47 -31 -14 3 33 -45 -57 -55 -8 -62 -45 -40 -26 -5 24
0000a0 23 0a b9 db 13 cd 1e cb b7 f1 f2 fe 04 54 16 ea
       35 10 -71 -37 19 -51 30 -53 -73 -15 -14 -2 4 84 22 -22
0000b0 f7 e7 ed bc b9 2e 18 d3 28 b0 c8 10 20 e3 24 24
       -9 -25 -19 -68 -71 46 24 -45 40 -80 -56 16 32 -29 36 36
0000c0 26 33 b6 f6 11 21 e0 08 36 f5 45 48 11 ca 30 cc
       38 51 -74 -10 17 33 -32 8 54 -11 69 72 17 -54 48 -52
0000d0 eb 02 2b d8 c4 b2 d7 35 dd 91 c2 e3 29 42 e9 04
       -21 2 43 -40 -60 -78 -41 53 -35 -111 -62 -29 41 66 -23 4
0000e0 2c f9 09 fd 3f 02 3e bf f3 09 c2 2c 39 2b 03 3f
       44 -7 9 -3 63 2 62 -65 -13 9 -62 44 57 43 3 63
0000f0 01 2d bf d5 20 bf bd ee e5 d8 1d c5 11 b4 1a c9
       1 45 -65 -43 32 -65 -67 -18 -27 -40 29 -59 17 -76 26 -55

tfl.pseudo_qconst2 i1 [32, 3, 3, 32]
000000 1b f7 23 ad 05 27 16 52 12 03 ed 0d da 33 03 ff
       27 -9 35 -83 5 39 22 82 18 3 -19 13 -38 51 3 -1
000010 e8 f1 c2 d9 17 c0 15 c0 60 c4 e6 15 c8 7c 41 0d
       -24 -15 -62 -39 23 -64 21 -64 96 -60 -26 21 -56 124 65 13
000020 5c cc eb e4 c0 37 ce 0c 1c 65 0c 16 bd 0d 12 40
       92 -52 -21 -28 -64 55 -50 12 28 101 12 22 -67 13 18 64
000030 3e ac 02 e5 c8 c7 f6 e4 b3 5a 48 a6 dc 4e e0 0b
       62 -84 2 -27 -56 -57 -10 -28 -77 90 72 -90 -36 78 -32 11
000040 db f4 de b0 af c0 ce 21 fa 48 7f 1a dd 26 cd 13
       -37 -12 -34 -80 -81 -64 -50 33 -6 72 127 26 -35 38 -51 19
000050 b6 4a 19 01 b9 ec f8 e1 cc 03 21 aa 13 4e fc 47
       -74 74 25 1 -71 -20 -8 -31 -52 3 33 -86 19 78 -4 71
000060 17 f5 f2 f5 dc ca 11 3c 0b 2d 0d e0 1d 13 fb f2
       23 -11 -14 -11 -36 -54 17 60 11 45 13 -32 29 19 -5 -14
000070 3a e4 09 ea 47 35 36 56 d7 21 f3 b8 66 63 10 ed
       58 -28 9 -22 71 53 54 86 -41 33 -13 -72 102 99 16 -19
000080 c3 34 c7 dc d3 46 34 11 f1 34 d5 13 c0 15 17 0f
       -61 52 -57 -36 -45 70 52 17 -15 52 -43 19 -64 21 23 15
000090 4d 3c 1a 38 bd 0a 1f be c6 3d fd b9 10 ca c8 0b
       77 60 26 56 -67 10 31 -66 -58 61 -3 -71 16 -54 -56 11
0000a0 fd 16 4a c0 ae 3b ef cb c2 00 72 ac 08 db 30 cb
       -3 22 74 -64 -82 59 -17 -53 -62 0 114 -84 8 -37 48 -53
0000b0 3c 3b 38 21 ba eb d8 15 38 e5 b8 20 be dd 4c 1f
       60 59 56 33 -70 -21 -40 21 56 -27 -72 32 -66 -35 76 31
0000c0 32 f0 e5 b4 e6 bf b4 b7 14 18 4c 04 e6 25 32 42
       50 -16 -27 -76 -26 -65 -76 -73 20 24 76 4 -26 37 50 66
0000d0 0a 41 ae f5 f6 b8 04 c9 fe 1c 17 28 eb f2 1e 30
       10 65 -82 -11 -10 -72 4 -55 -2 28 23 40 -21 -14 30 48
0000e0 cc 1a 59 ff 0c 05 35 e8 13 12 40 00 f1 4d 55 e1
       -52 26 89 -1 12 5 53 -24 19 18 64 0 -15 77 85 -31
0000f0 da 47 d8 b7 d2 f2 49 da 54 5c 08 41 02 4c 34 a2
       -38 71 -40 -73 -46 -14 73 -38 84 92 8 65 2 76 52 -94

tfl.pseudo_qconst3 i1 [128, 5184] scale=0.0007361202 zero_point=0
000000 d7 22 e2 13 cf 2b 0c de 1a 1a de 16 04 fb 05 02
       -0.03018093 0.025028087 -0.022083607 0.013986284 -0.036069892 0.03165317 0.008833443 -0.025028087 0.019139126 0.019139126 -0.025028087 0.016194645 0.0029444809 -0.003680601 0.003680601 0.0014722404
000010 22 e0 1b d8 d3 f4 eb 00 07 e7 17 dc fd e5 e6 f7
       0.025028087 -0.023555847 0.019875245 -0.029444808 -0.033125408 -0.008833443 -0.015458524 0.0 0.0051528416 -0.018403005 0.016930765 -0.026500328 -0.0022083607 -0.019875245 -0.019139126 -0.006625082
000020 17 dc df f9 fe 17 f5 d8 d5 d1 e5 e2 d9 24 e2 e9
       0.016930765 -0.026500328 -0.024291968 -0.0051528416 -0.0014722404 0.016930765 -0.008097323 -0.029444808 -0.03165317 -0.03459765 -0.019875245 -0.022083607 -0.028708689 0.026500328 -0.022083607 -0.016930765
000030 02 02 f1 01 f3 fe 1b e8 19 e1 04 ce 12 21 2e 1d
       0.0014722404 0.0014722404 -0.011041803 0.0007361202 -0.009569563 -0.0014722404 0.019875245 -0.017666886 0.018403005 -0.022819726 0.0029444809 -0.03680601 0.013250164 0.024291968 0.03386153 0.021347485
000040 d3 21 19 c8 f7 f4 08 e5 f0 de 2b e9 05 e9 f2 0f
       -0.033125408 0.024291968 0.018403005 -0.041222733 -0.006625082 -0.008833443 0.0058889617 -0.019875245 -0.011777923 -0.025028087 0.03165317 -0.016930765 0.003680601 -0.016930765 -0.010305683 0.011041803
000050 cd 10 fd f3 ec cf e4 1a f3 18 d8 0d d9 13 f5 f2
       -0.03754213 0.011777923 -0.0022083607 -0.009569563 -0.014722404 -0.036069892 -0.020611366 0.019139126 -0.009569563 0.017666886 -0.029444808 0.009569563 -0.028708689 0.013986284 -0.008097323 -0.010305683
000060 00 16 05 1e ef 19 1b 0d da 21 1c 1e f1 15 e4 f8
       0.0 0.016194645 0.003680601 0.022083607 -0.012514044 0.018403005 0.019875245 0.009569563 -0.027972568 0.024291968 0.020611366 0.022083607 -0.011041803 0.015458524 -0.020611366 -0.0058889617
000070 20 d1 02 25 ec ec 00 1e 1c fc 22 d0 e3 f5 f0 27
       0.023555847 -0.03459765 0.0014722404 0.027236449 -0.014722404 -0.014722404 0.0 0.022083607 0.020611366 -0.0029444809 0.025028087 -0.03533377 -0.021347485 -0.008097323 -0.011777923 0.028708689
000080 01 e9 06 14 19 db 03 f9 24 14 f3 1b d2 d9 11 1d
       0.0007361202 -0.016930765 0.0044167214 0.014722404 0.018403005 -0.027236449 0.0022083607 -0.0051528416 0.026500328 0.014722404 -0.009569563 0.019875245 -0.03386153 -0.028708689 0.012514044 0.021347485
000090 e0 f3 fe 1a de fb 06 0f e2 2b 17 00 ec dd 0d 03
       -0.023555847 -0.009569563 -0.0014722404 0.019139126 -0.025028087 -0.003680601 0.0044167214 0.011041803 -0.022083607 0.03165317 0.016930765 0.0 -0.014722404 -0.025764208 0.009569563 0.0022083607
0000a0 19 e7 16 e3 e7 e9 fa f4 e5 29 09 0b fd 18 fd e3
       0.018403005 -0.018403005 0.016194645 -0.021347485 -0.018403005 -0.016930765 -0.0044167214 -0.008833443 -0.019875245 0.03018093 0.006625082 0.008097323 -0.0022083607 0.017666886 -0.0022083607 -0.021347485
0000b0 1a 06 05 e3 eb 0d ec 13 f9 ce dc f0 f7 1c f8 e1
       0.019139126 0.0044167214 0.003680601 -0.021347485 -0.015458524 0.009569563 -0.014722404 0.013986284 -0.0051528416 -0.03680601 -0.026500328 -0.011777923 -0.006625082 0.020611366 -0.0058889617 -0.022819726
0000c0 ef d5 f2 0b 14 df 0f 20 17 f1 02 14 ea c6 27 e6
       -0.012514044 -0.03165317 -0.010305683 0.008097323 0.014722404 -0.024291968 0.011041803 0.023555847 0.016930765 -0.011041803 0.0014722404 0.014722404 -0.016194645 -0.04269497 0.028708689 -0.019139126
0000d0 1e 15 06 ed f5 e2 d5 fb d8 2c e1 02 ff 0a cd 13
       0.022083607 0.015458524 0.0044167214 -0.013986284 -0.008097323 -0.022083607 -0.03165317 -0.003680601 -0.029444808 0.03238929 -0.022819726 0.0014722404 -0.0007361202 0.007361202 -0.03754213 0.013986284
0000e0 0e 0e d7 24 14 cd d7 dc ec 24 e2 25 ed f8 26 d3
       0.010305683 0.010305683 -0.03018093 0.026500328 0.014722404 -0.03754213 -0.03018093 -0.026500328 -0.014722404 0.026500328 -0.022083607 0.027236449 -0.013986284 -0.0058889617 0.027972568 -0.033125408
0000f0 f1 fb 18 d0 2f 10 15 e2 2d e5 25 db ee ed 11 da
       -0.011041803 -0.003680601 0.017666886 -0.03533377 0.03459765 0.011777923 0.015458524 -0.022083607 0.033125408 -0.019875245 0.027236449 -0.027236449 -0.013250164 -0.013986284 0.012514044 -0.027972568
